assets/model.tflite (tflite, 40980 bytes, 5 tensors)

arith.constant f4 [1, 64]
0	0xbe518884	-0.20462233
1	0x3e7475cb	0.2387306
2	0xbdb341c6	-0.0875278
3	0x3e4d92dc	0.20075554
4	0x3e1eb837	0.1549996
5	0x3daa1780	0.083052635
6	0xbdfe2bf6	-0.12410729
7	0x3e5581b6	0.20850262
8	0x3e2229e3	0.15836291
9	0x3d97b11a	0.07406826
10	0x3e4aa5b1	0.19789769
11	0x3df42a2a	0.11922105
12	0xbe1cb12e	-0.15301964
13	0x3c9b1962	0.018933002
14	0xbe119b37	-0.14219366
15	0xbe34077d	-0.17580982
16	0x3e480d67	0.19536363
17	0x3da73e16	0.08166139
18	0x3e9b3b42	0.30318648
19	0xbe82a06f	-0.25513026
20	0xbd56467c	-0.052313313
21	0x3e6f940b	0.23396318
22	0x3c8dfb68	0.017331794
23	0xbe38cc17	-0.18046604
24	0x3e71ebc4	0.23625094
25	0xbe306831	-0.17227246
26	0x3e41827f	0.18897437
27	0xbdd210e1	-0.10257126
28	0xbe28fd8d	-0.16502972
29	0xbe925935	-0.28583685
30	0xbd81b838	-0.06333965
31	0x3e8b87f2	0.27252156
32	0x3e2ee3d2	0.17079094
33	0x3e853891	0.2601972
34	0x3e5d9669	0.21639408
35	0xbddd2744	-0.10798505
36	0xbdf1014d	-0.11767826
37	0xbd948591	-0.07252038
38	0xbdb485e9	-0.08814604
39	0x3dfb2cec	0.122644275
40	0x3e71baf9	0.2360648
41	0xbe925aca	-0.28584892
42	0x3cd06cad	0.025442446
43	0x3d3fb873	0.046806764
44	0xbc739940	-0.014868081
45	0xbda43a52	-0.08018936
46	0xbbd842f8	-0.00659978
47	0xbe99a231	-0.30006555
48	0xbb59fe54	-0.0033263164
49	0xbda2d9c9	-0.079516955
50	0x37d6a7f0	2.558899e-05
51	0x3e9b9f61	0.30395034
52	0x3e8f1ad0	0.27950144
53	0xbd86e04d	-0.06585751
54	0x3e6604fe	0.22462842
55	0x3dec2e90	0.115323186
56	0xbc247269	-0.010037043
57	0xbe91e7ae	-0.2849707
58	0x3df193b2	0.11795749
59	0x3e93bdba	0.28855687
60	0x3e6045fc	0.21901697
61	0xbdef1a5f	-0.11674952
62	0x3e77f945	0.24216183
63	0xbdcab7f4	-0.098983675

arith.constant1 f4 [64, 128]
0	0x3de42f16	0.111417934
1	0x3b5129fc	0.0031915894
2	0xbdd042e7	-0.101690106
3	0xbdb51b43	-0.088430904
4	0xbd1d3e9a	-0.03838978
5	0x3ce1384d	0.027492667
6	0xbdd14865	-0.10218886
7	0x3daba7de	0.083816275
8	0xbdd2997e	-0.102831826
9	0x3cde1fa8	0.027114704
10	0xbd67963c	-0.05653976
11	0x3e188933	0.14896087
12	0x3e0e11f1	0.13874032
13	0xbe1a9c14	-0.15098602
14	0x3de69099	0.112580486
15	0xbd1d49f9	-0.038400624
16	0xbdf2faa2	-0.11864211
17	0x3c8ac789	0.016940849
18	0x3c957dcb	0.01824846
19	0xbcfc30fc	-0.030785076
20	0x3d35240c	0.04422383
21	0x3da43e52	0.08019699
22	0xbcec6e4b	-0.028861186
23	0xbc121bd0	-0.008917764
24	0x3d805472	0.06266107
25	0xbe0ea4ba	-0.13930026
26	0x3ddc89b3	0.107684515
27	0x3ddc4a1a	0.10756321
28	0x3e03b797	0.12863003
29	0x3c2c2c8e	0.01050867
30	0x3d82dc06	0.063896224
31	0xbceb3811	-0.028713258
32	0x3b6230a8	0.0034513865
33	0xbe2e5455	-0.17024358
34	0xbd83ceb2	-0.064359084
35	0xbda2b63b	-0.07944914
36	0xbdef714e	-0.11691533
37	0xbe14840b	-0.14503495
38	0x3d974cfa	0.07387729
39	0x3e010773	0.12600498
40	0x3dcc872f	0.09986722
41	0x3dd9af67	0.106291585
42	0x3c55b1e0	0.013042897
43	0x3d80c798	0.062880695
44	0x3e2a7a69	0.16648258
45	0x3d7dc716	0.06195744
46	0xbdfd9467	-0.12381821
47	0x3a2600bd	0.00063325075
48	0xbdf3521f	-0.11880898
49	0xbe260439	-0.16212548
50	0xbe12d456	-0.14338812
51	0x3db8fea2	0.09032942
52	0xbe0e412b	-0.13892047
53	0x3e16c4da	0.1472353
54	0xbdb6751f	-0.08909058
55	0x3d575a69	0.052576456
56	0xbdd64bb8	-0.10463661
57	0xbbd6e7ad	-0.0065583796
58	0x3db48e63	0.088162206
59	0x3e2ee849	0.17080797
60	0xbd6847ad	-0.05670898
61	0x3df72a8a	0.120686606
62	0x3e010cae	0.12602493
63	0x3dbef53d	0.09324119
64	0x3d7d6110	0.061860144
65	0xbc204551	-0.009782151
66	0xbd3f3f83	-0.04669143
67	0xbe056bee	-0.13029453
68	0x3dc10b63	0.09426
69	0x3e2ff362	0.17182687
70	0xbe2b9305	-0.16755302
71	0xbdb955f4	-0.090495974
72	0xbcf69c89	-0.030103939
73	0x3dbda6cc	0.092603296
74	0x3e28f0d4	0.16498119
75	0x3dd55a20	0.104175806
76	0xbc93c5cf	-0.018038658
77	0xbdba57f1	-0.09098805
78	0xbbde4200	-0.00678277
79	0xbd846093	-0.064637326
80	0xbdf665a7	-0.120311074
81	0xbdc662a2	-0.096867815
82	0x3dcc5f50	0.09979117
83	0x3e2c5667	0.16829835
84	0xbdcc12f9	-0.09964556
85	0x3cc05dfe	0.023482319
86	0xbd46e8ea	-0.048561968
87	0xbd3a73a2	-0.045520432
88	0x3c8c02de	0.017091211
89	0xbe1bd2df	-0.1521716
90	0xbd563192	-0.052293368
91	0xbda8f780	-0.08250332
92	0x3d0102ee	0.031496935
93	0xbd8538f5	-0.06505004
94	0xbdad7516	-0.08469598
95	0x3d1ab144	0.03776671
96	0x3cd2cd68	0.025732711
97	0x3d9e264f	0.077221505
98	0xbe1d4a26	-0.15360317
99	0x3da5d1e0	0.08096671
100	0xbdb9bb3e	-0.09068917
101	0x3e31efdd	0.17376657
102	0xbdecfb22	-0.11571337
103	0x3c92313c	0.017845742
104	0xbc8d5d44	-0.017256387
105	0xbd991c43	-0.074760936
106	0x3dc93a4c	0.09825572
107	0xbe255d11	-0.16148783
108	0xbd105256	-0.03523477
109	0x3e1a7ce3	0.15086703
110	0x3ca0e65b	0.019641092
111	0xbd9cac7d	-0.07650087
112	0x3cdb113a	0.026741613
113	0x3df356a1	0.118817575
114	0x3e2104bf	0.15724467
115	0xbdaa1ef6	-0.083066866
116	0xbdca3080	-0.09872532
117	0xbe290efa	-0.1650962
118	0x3e058ba3	0.13041548
119	0x3a8b7799	0.0010640501
120	0x3cceb7f8	0.025234208
121	0x3d2aafbe	0.041671507
122	0x3e2fb52c	0.17158955
123	0x3d4c7027	0.049911644
124	0x3d278088	0.04089406
125	0xbc8d0a83	-0.017216926
126	0x3e10b3bf	0.14131068
127	0xbe25e341	-0.16199972
128	0xbddb6843	-0.10713246
129	0xbd7d19e2	-0.061792262
130	0xbde404f6	-0.11133759
131	0x3d5a4c6a	0.05329553
132	0xbca7c962	-0.020481769
133	0xbcd82a3f	-0.026387332
134	0x3c8e76ef	0.017390696
135	0x3cae2718	0.021258876
136	0x3e1f79ae	0.15573761
137	0x3db71734	0.089399725
138	0xbe24d782	-0.16097835
139	0x3d00f894	0.031487063
140	0xbe1834cf	-0.14863895
141	0xbd616534	-0.055028155
142	0x3e196c2f	0.14982675
143	0xbdcc468b	-0.099743925
144	0x3de8da46	0.11369757
145	0xbced097b	-0.028935185
146	0xbd8e5e59	-0.06951589
147	0x3b28247c	0.0025656512
148	0xbe0e57ed	-0.13900729
149	0xbd5652b8	-0.05232498
150	0xbdde69f2	-0.10860051
151	0x3dc34402	0.09534456
152	0x3e147059	0.14495982
153	0xbd31c496	-0.04340037
154	0x3c0a3698	0.008435868
155	0x3e342af9	0.17594518
156	0x3df73492	0.12070574
157	0x3d766bcd	0.0601614
158	0xbe260937	-0.16214453
159	0xbe191be3	-0.14952044
160	0xbe369f50	-0.1783421
161	0xbe111059	-0.14166392
162	0x3cbe265d	0.023211652
163	0xbc2a794f	-0.010404899
164	0xbe235adf	-0.15952633
165	0x3c0d9fd4	0.008644063
166	0xbaceff6c	-0.0015792674
167	0xbe2f504f	-0.17120479
168	0xbe1e5fe9	-0.15466274
169	0x3d5f5d40	0.05453229
170	0xbd7f6536	-0.06235238
171	0xbcab7b22	-0.020932738
172	0xbe2facb5	-0.17155726
173	0x3dbaaa1d	0.09114478
174	0xbc744fec	-0.014911633
175	0xbcd84c1e	-0.026403483
176	0x3d9306be	0.0717902
177	0xbe1dcf0c	-0.15411013
178	0x3d9df0bd	0.07711933
179	0xbe0fce3a	-0.14043513
180	0x3da37824	0.079818994
181	0x3d97fadc	0.074208945
182	0xbd8e6cc3	-0.069543384
183	0x3e2aa6f1	0.16665246
184	0x3e281f64	0.16418225
185	0x3d4a5e21	0.049406175
186	0x3e2bc7eb	0.16775481
187	0xbe0755cc	-0.13216323
188	0xbd80397e	-0.06260966
189	0x3e2cdc5c	0.16880935
190	0xbe314e64	-0.1731506
191	0xbe1cb51f	-0.15303467
192	0xbdc41626	-0.09574537
193	0x3daa935c	0.08328888
194	0x3e1a0d6b	0.15044181
195	0x3de3e332	0.111273184
196	0xbdf0e6c0	-0.11762762
197	0x3e212460	0.15736532
198	0x3d3d77ec	0.046256945
199	0x3df736f0	0.12071025
200	0x3dbad5e7	0.0912283
201	0x3e2de78e	0.16982862
202	0x3d90724d	0.07053051
203	0xbdfb5276	-0.122715876
204	0x3e23f519	0.16011466
205	0xbe0df06d	-0.13861246
206	0x3b907aa0	0.0044091493
207	0xbca11fba	-0.019668449
208	0xbc632ea5	-0.013866101
209	0x3e2de750	0.1698277
210	0xbd533414	-0.051563337
211	0xbd47f5ef	-0.048818525
212	0xbcf932d8	-0.030419752
213	0xbd01bfa6	-0.03167691
214	0xbcfa824a	-0.030579705
215	0x3dc0f91f	0.09422516
216	0x3e0c8216	0.13721499
217	0x3d0ec2bc	0.034853682
218	0xbe2fcc9b	-0.17167895
219	0xbdd170db	-0.102266036
220	0xbda6214a	-0.08111818
221	0x3d72c327	0.059268143
222	0xbe093ef8	-0.13402927
223	0x3dc7ba11	0.09752286
224	0xbce3bea6	-0.02780087
225	0xbe2ea860	-0.17056417
226	0xbdf67fb9	-0.1203608
227	0xbdeba659	-0.11506338
228	0x3db18890	0.08668625
229	0xbdf6610f	-0.12030231
230	0x3e0952f7	0.13410555
231	0xbc8b79cc	-0.01702585
232	0xbc8ee808	-0.017444625
233	0x3d9db91e	0.07701324
234	0x3d438ee3	0.04774369
235	0x3d24a604	0.040197387
236	0x3da522dd	0.0806329
237	0xbd9f0dc0	-0.077662945
238	0xbe2b663d	-0.1673822
239	0xbe1c5eb2	-0.15270498
240	0xbe10b60b	-0.14131944
241	0xbb6dfa06	-0.0036312356
242	0x3e01a40f	0.1266024
243	0xbe2ccda1	-0.16875316
244	0xbd3a0154	-0.045411423
245	0xbe29de32	-0.16588667
246	0x3db4e73a	0.088331655
247	0xb881e6c0	-6.19418e-05
248	0x3dec1992	0.11528315
249	0xbdb71e71	-0.08941353
250	0xbdfcb4f0	-0.123391986
251	0xbc65c374	-0.01402365
252	0x3daa425f	0.083134405
253	0x3e1c3147	0.15253173
254	0x3cf15a7b	0.02946209
255	0x3db4350a	0.08799179

sequential_1/dense_1_2/BiasAdd/ReadVariableOp f4 [64]
0	0x3b153deb	0.0022772502
1	0xbb1fa554	-0.0024360018
2	0xbb6a710b	-0.0035772945
3	0x00000000	0.0
4	0x383c4d20	4.489452e-05
5	0xbad64922	-0.00163487
6	0x00000000	0.0
7	0xbb44ffaa	-0.0030059614
8	0x3b31a8b6	0.0027108616
9	0xba8deaed	-0.001082746
10	0xba8fe6f4	-0.0010978864
11	0xbb00c13a	-0.0019646422
12	0xb99fb3ab	-0.00030460706
13	0xbad108c7	-0.001594805
14	0x00000000	0.0
15	0x3aa89cee	0.0012864152
16	0xb9b167bc	-0.0003383736
17	0x3ab63cbe	0.0013903601
18	0x00000000	0.0
19	0x3ab82f7b	0.0014052236
20	0x3a881dcb	0.0010384856
21	0xbab982a4	-0.0014153314
22	0x3b37a54c	0.0028022109
23	0x3680b7c0	3.8360886e-06
24	0xbb095933	-0.0020957708
25	0x3ad13d02	0.0015963616
26	0xba7320cd	-0.0009274602
27	0x39b947d4	0.00035339466
28	0x3b66f85f	0.0035243256
29	0x3b631644	0.0034650723
30	0x00000000	0.0
31	0x39f97440	0.00047579594
32	0xba116720	-0.0005546678
33	0xba9b9202	-0.0011869075
34	0xba98d681	-0.0011660607
35	0x3b0672a3	0.0020515106
36	0x3acaa14b	0.0015459446
37	0x3b073d28	0.0020635817
38	0x39d56760	0.00040703546
39	0x00000000	0.0
40	0xbaf2407b	-0.0018482351
41	0xb9fcbd39	-0.00048206167
42	0xbb379c1c	-0.0028016632
43	0xbb080eac	-0.0020760698
44	0x00000000	0.0
45	0x39251830	0.00015744637
46	0x3b40d024	0.0029420936
47	0xbac00386	-0.0014649488
48	0x3a868b04	0.0010264819
49	0x3a97f3a0	0.0011592992
50	0xbb2205a1	-0.0024722593
51	0xbb65fef0	-0.0035094582
52	0xbb1ea390	-0.0024206378
53	0xb9bbb540	-0.0003580246
54	0x3b079187	0.0020686106
55	0xbae0464a	-0.0017110792
56	0xba317c00	-0.00067704916
57	0xb9fc665a	-0.00048141443
58	0xbaccbb82	-0.0015619847
59	0xbacc2371	-0.0015574527
60	0x00000000	0.0
61	0x3aca8f18	0.0015454022
62	0xbacc38d6	-0.0015580903
63	0xba45e005	-0.0007548335

sequential_1/dense_1/BiasAdd/ReadVariableOp f4 [128]
0	0x38b14648	8.4531086e-05
1	0x394caa7c	0.00019518466
2	0x3b691cb5	0.003557009
3	0xbb2732c3	-0.0025512434
4	0xbad002c9	-0.0015869971
5	0x3b4cc6b6	0.003124637
6	0xbb59df22	-0.003324457
7	0xbb3f58ff	-0.0029197333
8	0xba6754df	-0.00088245975
9	0xbb114c7e	-0.0022170837
10	0x3a152f4c	0.0005690947
11	0x00000000	0.0
12	0xbb26cad2	-0.002545048
13	0x3b5406a8	0.00323526
14	0xbb56bc64	-0.0032766098
15	0xba01ca55	-0.00049511093
16	0xbaac0f69	-0.0013127151
17	0x3b3ce213	0.0028821274
18	0x3b3e79a1	0.0029064196
19	0x3b70870c	0.0036701588
20	0xbb392893	-0.0028252944
21	0x39b3d36a	0.00034299056
22	0xb9f42b76	-0.00046571688
23	0x00000000	0.0
24	0x00000000	0.0
25	0x3b25a111	0.0025273005
26	0x3a57eb92	0.0008236702
27	0x00000000	0.0
28	0x00000000	0.0
29	0x3b1aa267	0.0023595334
30	0x00000000	0.0
31	0x3b363dcb	0.0027807828
32	0x3a30d8ee	0.0006746192
33	0x3b416d5a	0.0029514642
34	0xbb71789c	-0.003684557
35	0xbafbbafb	-0.0019205505
36	0x38b781e0	8.750311e-05
37	0xbae14541	-0.0017186777
38	0x3b3f085f	0.0029149277
39	0x3b1b3e0a	0.0023688101
40	0x3ae1d22c	0.0017228774
41	0xbad786d4	-0.001644338
42	0x3b650d1a	0.0034950436
43	0x3a67dc0a	0.0008844739
44	0xb9ea2e69	-0.00044666536
45	0x3a2cfdaa	0.0006599078
46	0xba3aab3f	-0.00071208546
47	0xbaeaf328	-0.0017925249
48	0xb9d27c0c	-0.00040146743
49	0x3a17868a	0.0005780241
50	0xbb812768	-0.003941465
51	0x3b6e6ab8	0.0036379527
52	0xbad6a4af	-0.0016375984
53	0xba887f26	-0.001041387
54	0xbab55278	-0.0013833782
55	0xba950b27	-0.0011371122
56	0xbb58da85	-0.0033089232
57	0xbafe74fd	-0.0019413527
58	0xbb293e2e	-0.0025824415
59	0x3b7aa700	0.0038246512
60	0xbb31009e	-0.0027008425
61	0xbb1d57e4	-0.0024008686
62	0x3b043ec0	0.0020179003
63	0x3afd02d4	0.0019303211
64	0x00000000	0.0
65	0xb9eb1fc8	-0.00044846372
66	0xba962542	-0.0011455195
67	0xbb6a8a8f	-0.0035788154
68	0xbb6815ea	-0.0035413452
69	0xba7e64ea	-0.00097043684
70	0xba87c940	-0.001035966
71	0x3b4f5f57	0.003164252
72	0xbb0bbf75	-0.0021323834
73	0xbb10d3dd	-0.0022098937
74	0xba4cf542	-0.00078185287
75	0x3a88a7ee	0.0010426024
76	0xba93d66f	-0.0011279116
77	0x00000000	0.0
78	0x00000000	0.0
79	0x3ab73daf	0.0013980175
80	0x3ac5d9fb	0.001509487
81	0xbb0982e4	-0.0020982558
82	0x3b3bc2e3	0.0028650097
83	0x3a58c952	0.0008269745
84	0x3b25e229	0.0025311804
85	0x3aa0cdee	0.0012268403
86	0x3a607988	0.00085630314
87	0xba787ec9	-0.00094793417
88	0xba717be9	-0.00092118845
89	0xbb0df254	-0.0021659331
90	0x00000000	0.0
91	0x3a17d0ab	0.0005791287
92	0x3ac54f08	0.001505346
93	0x39de8f91	0.00042450105
94	0xba83d984	-0.0010059332
95	0xbb0d3b91	-0.0021550397
96	0xbadc146d	-0.0016790755
97	0x3b62ef3c	0.0034627458
98	0xbb05700f	-0.0020360982
99	0x38223aa0	3.867841e-05
100	0xbb5904a9	-0.003311435
101	0xbb3e3f80	-0.0029029548
102	0xb987d95f	-0.0002591116
103	0x3a86169b	0.0010230126
104	0xbb163cee	-0.00229245
105	0x3a4f9dd2	0.00079199404
106	0xbb4cfc30	-0.0031278245
107	0x00000000	0.0
108	0x3854132c	5.0562594e-05
109	0x3b471f1e	0.0030383538
110	0x3b22e14b	0.0024853523
111	0x00000000	0.0
112	0x3a147baa	0.00056641793
113	0x3a35e48a	0.0006938657
114	0xbb440998	-0.0029912945
115	0x3a145c97	0.0005659549
116	0xbaaa8262	-0.0013008828
117	0x00000000	0.0
118	0xbb3621e6	-0.00277912
119	0xba548d92	-0.0008108254
120	0x00000000	0.0
121	0x3b187886	0.0023265197
122	0x3b825720	0.0039776713
123	0x3a8850b7	0.0010400031
124	0x3b049d9c	0.0020235544
125	0xbb331b18	-0.0027329382
126	0xb9aaddc8	-0.00032590167
127	0x3b2b12a4	0.002610364

sequential_1/dense_1/MatMul f4 [128, 10]
0	0x3dadbb2b	0.08482965
1	0xbe1d4c38	-0.15361106
2	0x3d3631f1	0.04448122
3	0xbe102acf	-0.1407883
4	0xbda0061b	-0.078136645
5	0xbe11c3a7	-0.14234792
6	0xbe493152	-0.1964772
7	0x3e307532	0.17232206
8	0x3e246c5a	0.16056958
9	0xbe344f63	-0.17608409
10	0x3e082186	0.13294038
11	0x3d033fd1	0.032043282
12	0xbdb1bd93	-0.086787365
13	0x3df9940c	0.12186441
14	0xbb2100c3	-0.0024567104
15	0x3dde7327	0.10861807
16	0xbe000965	-0.12503584
17	0x3d11bec5	0.035582323
18	0x3e466360	0.19373846
19	0x3be644da	0.0070272507
20	0xbd6aff49	-0.057372365
21	0xbe0a687a	-0.13516417
22	0x3ddf86f7	0.109144144
23	0xbe1ab8d7	-0.15109573
24	0x3e3fc61d	0.18727918
25	0xbc1541a6	-0.00910989
26	0x3e32d6c0	0.17464733
27	0x3da78381	0.08179379
28	0xbd611969	-0.054955874
29	0xbe0ac64b	-0.13552205
30	0x3d579d5f	0.052640315
31	0xbb4a7e08	-0.0030897874
32	0x3e2dcef4	0.16973478
33	0x3d718f36	0.058974467
34	0xbe56d445	-0.20979412
35	0x3e07a5dc	0.13246864
36	0x3dacd95b	0.08439895
37	0xbe146ee0	-0.1449542
38	0x3e201252	0.15631989
39	0xba0141a5	-0.0004930741
40	0x3c32e9b7	0.01091998
41	0xbe0fa79c	-0.14028782
42	0xbe019260	-0.12653494
43	0xbdd4c962	-0.10389973
44	0xbe306d8f	-0.17229293
45	0xbdf3c26c	-0.119023174
46	0xba84cefa	-0.0010132485
47	0x3e20d2bb	0.15705387
48	0x3e4c6506	0.19960412
49	0xbb5a84f2	-0.0033343402
50	0xbda8c87e	-0.08241366
51	0xbdcd1948	-0.10014588
52	0xbc4b3744	-0.012403313
53	0xbe33bbd6	-0.17552122
54	0x3df25f66	0.11834602
55	0xbd9966d3	-0.07490315
56	0x3e4e28a9	0.20132698
57	0xbe48ffe0	-0.19628859
58	0xbb12fa20	-0.0022426918
59	0x3ca834c0	0.020532966
60	0x3e2100ec	0.15723008
61	0x3ca87fea	0.020568807
62	0x3e34544c	0.17610282
63	0xbcfa36d4	-0.030543722
64	0x3c699f70	0.014259204
65	0xbd3dddda	-0.046354152
66	0xbd796912	-0.06089122
67	0x3d8515d9	0.06498308
68	0xbe433554	-0.19063312
69	0x3d7bcb33	0.061473083
70	0x3d0260f0	0.031830728
71	0xbd8db27a	-0.06918807
72	0x3da29255	0.07938067
73	0x3e3d3766	0.18478164
74	0xbcc817eb	-0.024425467
75	0x3e1f1c30	0.15538096
76	0x3dd71c1f	0.105034105
77	0x3e18aaf8	0.1490897
78	0xbe3c16d9	-0.1836809
79	0xbe4c25d7	-0.1993631
80	0x3e48cf42	0.19610313
81	0xbdce2b28	-0.10066825
82	0xbd16c709	-0.03681091
83	0xbdfba407	-0.12287145
84	0xbe55a2dc	-0.20862907
85	0x3e267bea	0.16258207
86	0xbe225145	-0.15851314
87	0x3e4839ec	0.19553345
88	0x3e15faba	0.14646426
89	0xbca7d097	-0.020485206
90	0xbdbbd815	-0.09172074
91	0xbe482327	-0.1954466
92	0x3e05da57	0.13071571
93	0xbe211b1d	-0.15732999
94	0x3d124183	0.035707008
95	0xbd496523	-0.049168717
96	0xbc61f658	-0.013791643
97	0xbc00015b	-0.007812823
98	0xbd94f3ce	-0.072730646
99	0x3e4bee40	0.19915104
100	0x3b3b39d7	0.002856841
101	0xbe0ec828	-0.13943541
102	0x3e4db8b9	0.20089997
103	0xbdec1bb2	-0.1152872
104	0x3d11cc0b	0.03559498
105	0xbcb5c9d7	-0.022190971
106	0xbe4d711d	-0.2006268
107	0xbe41a885	-0.18911941
108	0x3e516b7e	0.20451161
109	0x3baa539d	0.0051979558
110	0xbe1616a3	-0.14657073
111	0xbe2077e8	-0.1567074
112	0xbd09b958	-0.033624023
113	0xbd4019b4	-0.046899512
114	0x3d998b72	0.074973
115	0x3e14d901	0.14535905
116	0xbe3b46f6	-0.18288788
117	0x3d5daedc	0.054121837
118	0xbe52ddc3	-0.20592408
119	0xbe1edb77	-0.15513407
120	0xbdd61486	-0.10453133
121	0xbd9deee6	-0.07711582
122	0xbd0884bd	-0.033329714
123	0x3dca711c	0.09884855
124	0xbe421a67	-0.18955384
125	0x3dd74ec2	0.10513069
126	0xbd27b9d5	-0.040948708
127	0x3dc89c30	0.097954154
128	0xbdf0c321	-0.11755968
129	0x3ccf0b2e	0.025273886
130	0x3df778a1	0.12083555
131	0x3e3015f6	0.17195877
132	0x3e27b154	0.16376239
133	0xbd2dd647	-0.04244068
134	0xbdb3d54f	-0.0878092
135	0x3e240af9	0.1601981
136	0x3cfede02	0.031111721
137	0x3d9fb756	0.077986404
138	0x3d3c8739	0.046027396
139	0xbdf53935	-0.11973802
140	0x3e21f27f	0.15815161
141	0xbde49772	-0.111616984
142	0x3e0568a4	0.13028198
143	0x3e2e8db7	0.17046247
144	0x3e3086d5	0.17238934
145	0x3e2bca18	0.16776311
146	0xbe3f74da	-0.18696919
147	0x3cad6772	0.02116749
148	0xbe3cd0e2	-0.18439057
149	0x3d5e6bd7	0.054302063
150	0xbe37eaca	-0.17960659
151	0xbd9fcf14	-0.07803169
152	0x3db68c3e	0.08913468
153	0xbde4c853	-0.11171021
154	0x3c76447a	0.0150309745
155	0x3e45289d	0.19253774
156	0x3dc1e8e7	0.09468251
157	0x3c9d8a42	0.019230966
158	0xbde3ab4b	-0.11116656
159	0x3de55172	0.11197175
160	0xbe0a4bfe	-0.13505551
161	0x3d298bd2	0.04139311
162	0xbd9e217d	-0.07721231
163	0xbe484fab	-0.19561641
164	0xbddcd4e7	-0.107827954
165	0xbe041e38	-0.12902153
166	0xbdd9f231	-0.106418975
167	0x3c149e9f	0.009071021
168	0x3dd2d36f	0.10294234
169	0x3e0f74a2	0.14009336
170	0x3e09c85c	0.13455337
171	0xbe2f5ec2	-0.17125991
172	0x3d47b496	0.048756205
173	0x3e478eec	0.19488114
174	0x3e45c5c8	0.19313729
175	0x3e04c975	0.12967475
176	0xbd8ea1b6	-0.06964438
177	0x3e1111d0	0.14166951
178	0x3e402592	0.18764332
179	0x3dd628c8	0.10456997
180	0x3c66fdb8	0.014098577
181	0x3e1d64b9	0.15370454
182	0x3dd616a4	0.10453537
183	0xbe420386	-0.18946657
184	0x3e38ccb7	0.18046843
185	0x3c59f50b	0.013303052
186	0xbe216413	-0.15760832
187	0xbe2ac958	-0.16678369
188	0x3e039a4e	0.12851831
189	0x3e291d2e	0.16515037
190	0x3e154b6a	0.1457955
191	0x3d92585c	0.071457595
192	0xbc9372c0	-0.017999053
193	0x3e267fdd	0.16259713
194	0xbc8b0658	-0.016970798
195	0x3d858c58	0.06520909
196	0x3e398ce2	0.18120149
197	0xbd766ae8	-0.060160547
198	0xbe41a9f4	-0.18912488
199	0xbe2a5f87	-0.16638003
200	0x3d7e3a83	0.06206752
201	0x3e008c78	0.12553585
202	0xbe51fd1b	-0.20506708
203	0xbd9b40f6	-0.0758075
204	0x3cf41a7e	0.029797789
205	0xbdab699c	-0.08369753
206	0xbe14ae10	-0.14519525
207	0xbd949f4c	-0.07256946
208	0x3d396a44	0.04526736
209	0x3e170160	0.14746618
210	0x3e0c5c28	0.1370703
211	0xbdc66eaf	-0.0968908
212	0xbe3bb8e1	-0.18332244
213	0xbcc19497	-0.023630423
214	0xbd4eb794	-0.050468042
215	0xbe1ca696	-0.15297922
216	0xbcdc2da3	-0.02687723
217	0x3d2378c0	0.039910078
218	0xbdecec83	-0.115685485
219	0x3e06c595	0.13161309
220	0x3d70d23c	0.058794245
221	0x3d09d95a	0.03365455
222	0x3e350f0d	0.17681523
223	0xbe21cfa9	-0.15801872
224	0x3e29451a	0.16530266
225	0x3d590b60	0.052989364
226	0xbde5ba76	-0.11217205
227	0x3e4f4709	0.20241942
228	0x3d2bcd63	0.04194392
229	0x3e2c8ce7	0.16850625
230	0xbdaf00ce	-0.08545075
231	0xbce68bc8	-0.028142825
232	0x3d251bc0	0.040309668
233	0xbdfb89c2	-0.122821346
234	0xbe131fc3	-0.14367585
235	0xba8b5c00	-0.0010632277
236	0x3da7c8de	0.08192609
237	0xbc16e450	-0.009209707
238	0xbb744b40	-0.0037276298
239	0xbe3a6156	-0.18201193
240	0x3c9a6ab0	0.0188497
241	0xbe05c9c8	-0.13065255
242	0xbbd27cc0	-0.0064235628
243	0xbe3b7d02	-0.18309405
244	0xbe2bf3fc	-0.16792291
245	0xbdff9e78	-0.124813974
246	0xbcc7dc70	-0.024397105
247	0xbe3c5518	-0.18391836
248	0xbdaa1ca0	-0.08306241
249	0xbe189cf1	-0.14903618
250	0xbdd9fea9	-0.10644276
251	0x3e34cf0d	0.17657109
252	0xbdee0ffb	-0.11624142
253	0x3e1353d5	0.14387448
254	0xbe182ab0	-0.14860034
255	0x3e0d34dd	0.13789697
